hw1/weight0.npy (npy, 1432 bytes, 1 tensors)

array f8 [163]
00000000: 66f0 0f36 79e0 6e3f 4da5 0db5 251c 513f
00000010: 175d b9c8 810e 773f 9628 c014 6437 95bf
00000020: 306c a73c 987f 703f 2a4e 2e0a d1a4 b03f
00000030: 5338 e1b0 5831 9c3f 149c ae13 36f2 b0bf
00000040: 1854 a331 9b3f b0bf d3f2 c178 6725 bd3f
00000050: 3515 ada0 86b3 c13f bb16 0b9e f4af bd3f
00000060: b5e4 761c 329a b03f 64cd cd47 d0e9 bf3f
00000070: 25fa b834 7744 c13f c4b0 a31a 2fe7 c73f
00000080: 56c1 4f70 07ba ca3f 96a9 3c56 c61a c13f
00000090: a2e5 40cf 2258 d33f 2013 7bdf 3de8 d93f
000000a0: 0130 3966 ecd8 d53f 4ea1 7301 64d8 b3bf
000000b0: cad4 97a8 601d b3bf e711 4a70 81f4 c83f
000000c0: dc8e 8e80 32f0 d73f ebcb ec8d f830 d03f
000000d0: 7e9a f174 d99d f83f fd60 4a45 856f cebf
000000e0: 2e16 d47a 889b b6bf ee93 b6bc b5aa c8bf
000000f0: 95a6 25cb 3307 bfbf 5d8f 3ceb 5c19 d2bf
00000100: 24c2 a6e3 3f2d d1bf 54d9 14e5 a281 a4bf
00000110: 9d39 d3a6 c28b cc3f 1d8d ddf6 1bcd debf
00000120: 5498 57ab 89d4 813f c75c cb2f bd1e 9fbf
00000130: a4fd a2b5 0eb7 983f 746a 406f ef20 90bf
00000140: d697 3451 399a 833f ea99 4710 1142 903f
00000150: 5a5d 0d70 2572 a1bf 7489 d58b 958b b13f
00000160: 620e eda5 1060 b6bf 8074 ec55 5152 81bf
00000170: 751f d352 842f 8a3f 5e61 dfc6 d42b 8ebf
00000180: 06de f952 6b22 713f 905a ee8c 8bf4 8dbf
00000190: 657f d15c af3a a2bf 990f f891 adfa 923f
000001a0: ea70 c0d2 d51e b9bf 9b9f 1159 417b bd3f
000001b0: 2a25 77f3 faa8 7ebf 1f1d 4905 869d 463f
000001c0: a27e da0d fa49 763f 7693 6b3c 7308 81bf
000001d0: 40c6 5493 95b4 5f3f 4cdc ba5a 6d7b 92bf
000001e0: 362d 8beb 62a6 66bf e74b 8c76 a8c1 aabf
000001f0: a881 4eeb a13f b13f f367 7a05 ed4d 55bf
00000200: 5c0f cfc2 47b7 62bf e846 1e99 9e64 84bf
00000210: 00df e867 3b50 913f 1d14 8010 4821 91bf
00000220: 268f 254e 8dd2 95bf 166b d426 6d81 8a3f
00000230: 3c9b 2a31 bad2 b2bf 6179 503b a017 b93f
00000240: c839 dd66 784f 403f fe51 98e9 bf30 73bf
00000250: 4cd7 239b 4e92 303f e925 75f0 7314 593f
00000260: 2b63 c19a 5c23 4bbf b69e f0cd 6921 5dbf
00000270: 6b93 6a1d 9dc9 543f 8000 a0a1 f489 3f3f
00000280: 9bcb 13b5 1f0c 783f 211f efe3 a527 7ebf
00000290: 40cf 5da4 c888 893f 50d6 4fe0 cde4 9c3f
000002a0: 71a6 bc5a 072e 94bf 88d9 c02a 71f6 903f
000002b0: 92f7 1d4b ba07 b33f 26bb 4ff8 7a7d abbf
000002c0: caa5 827b 8a9d c53f 5a4f ffb4 1b44 e53f
000002d0: 3a12 b42c 3a1b b03f 2d2a 5548 e07f 95bf
000002e0: 8e72 d4a7 cccd 8f3f b636 94d7 9b36 8abf
000002f0: 6219 734f 18f6 65bf 5548 16fd f9d8 9d3f
00000300: 3d11 fa5f 99fc 98bf ad89 bcb6 e279 99bf
00000310: 688a 0c3b 4d26 b8bf dfd8 2e58 74bb 8d3f
00000320: 9e65 879b 720e 90bf 3d4e bc87 f551 86bf
00000330: 251a 40a9 41c7 7b3f d618 5969 7bbb 883f
00000340: 3a6a d8d9 d28d 96bf af5f f7d4 2357 783f
00000350: 09ef 8326 f55b 8c3f 1565 828a 8d35 a1bf
00000360: 0d42 a438 614b 6dbf dc4c 7244 5bd9 793f
00000370: 6358 4c3b 4060 a3bf dcbd 3498 8e30 523f
00000380: 111d 2d67 0e34 8abf 65bf 744b d83d 3abf
00000390: d137 78f8 88a9 85bf 158d 1066 d98f 87bf
000003a0: 63ec 2b1c a670 ab3f 0866 51bc 76d2 bc3f
000003b0: 36ce 04a0 d2f9 c23f c13a ea44 1b58 b93f
000003c0: 0608 2228 86c4 b23f 0f71 61ab c5e2 b53f
000003d0: ce28 3dbc b3a2 bb3f 6b96 c0e7 5220 ce3f
000003e0: 1537 7502 35ed cc3f a0b8 febc a4bf b73f
000003f0: acc0 0ed5 95b5 21bf 58c7 a489 68b6 17bf
00000400: 4e54 a11e 0f2f 1abf d2c0 7414 f886 553f
00000410: 8e2d fd56 9639 4ebf d21c 9e87 8a16 5fbf
00000420: 5ffa 0cdd 04ae 433f 23d5 b483 cc35 43bf
00000430: c94e 8e1d 5546 6d3f 1015 6c85 3f6c 283f
00000440: 8ac4 54ef 3c4c c73e 03a9 3b3a 2ed7 44bf
00000450: dbf0 d5b9 b5d4 51bf e511 fa51 523f 5b3f
00000460: 9161 1ac1 6d1f 3ebf a6d0 4cc4 1877 48bf
00000470: a9a0 60ea d830 52bf a121 2bf4 5263 5d3f
00000480: 85e0 e731 f7ac a9bf b875 f611 9e90 a6bf
00000490: 0a35 ffdf 6bb3 64bf a255 9081 5d51 b23f
000004a0: 7e4f 6cd7 790a 933f fcb1 1c83 3f1f 7b3f
000004b0: 1c6e 1b40 ea2c c43f 08c8 d654 f085 b43f
000004c0: 69b7 c9d8 f043 d2bf 8f16 9532 4a58 aebf
000004d0: 6541 6181 5b1c 983f 3095 f1c5 ad26 a6bf
000004e0: a969 5aff ce08 58bf 9d94 7a0e c018 b13f
000004f0: 5faf d66e 80bb c4bf 688d 39d7 4700 b9bf
00000500: a10b 1cff 2fec cf3f 72d2 6192 6c47 c4bf
00000510: ffda 21f6 c675 c53f
0.0037691466718552833 0.0010443084940681858 0.005629069298797937 -0.02071911217357377 0.004027933764940747 0.06501490114742894 0.027531991763958107 -0.06619585018653168
-0.06347055398812562 0.11385199258979677 0.13829119534981663 0.11596611841658959 0.0648528403752547 0.12466146233582759 0.13490190576881492 0.18674267578842862
0.20880215629541493 0.1336296006277961 0.3022543930015563 0.4047999079160025 0.34136495573761755 -0.07752060923997314 -0.07466701618234875 0.19496171934964865
0.3740354781568678 0.25298894748556106 1.5385374611011282 -0.23777833827330844 -0.08831074713460715 -0.19270965303908788 -0.12120364865918483 -0.2827980324966484
-0.2683868144186212 -0.040051546539347754 0.22301514764553768 -0.48126887424423775 0.008706164876411439 -0.03039069751943371 0.024135808788512528 -0.015750638165722156
0.009571502485936561 0.015877024286874354 -0.03407399170708443 0.0685361353294292 -0.08740333605697395 -0.008457789835626395 0.012785943772896971 -0.01473203880225132
0.004183215365280107 -0.014626589048743172 -0.03560398109470845 0.018534385713806143 -0.09812675853067146 0.11516197609455363 -0.007485370900618885 0.0006901649854364234
0.005441643499267153 -0.008316898614290951 0.0019351444910395005 -0.018048962271418653 -0.0027648860962920198 -0.05225874373549982 0.06737720484534881 -0.0013003172552203928
-0.0022846604901775435 -0.009957541511343718 0.016907623498098268 -0.01672852135381585 -0.0213110045382471 0.0129421737170126 -0.07352794361450504 0.09801675270180034
0.000497754850337811 -0.00468516317188916 0.00025286120502642363 0.0015307552547078002 -0.0008281900568461777 -0.001777985882435757 0.001268771584059548 0.00048124525494586817
0.005870937210818018 -0.007362030038116336 0.012467925563874993 0.02821656877127615 -0.01970683566393067 0.016565101847129365 0.07433666547691889 -0.053691714106994845
0.16887026816156797 0.6645639929870228 0.0629154547824066 -0.020995621123157605 0.015529250022660503 -0.012799470440337895 -0.0026808237849735165 0.029148012230116944
-0.024401089175186675 -0.024879019168233252 -0.09433443729043633 0.014517697278148166 -0.01568011354706799 -0.01089851208192904 0.006781822670751701 0.012076343681780715
-0.022025389238573313 0.005942478149755389 0.01384727023877687 -0.03361170116222404 -0.0035759829380668296 0.006310802949104768 -0.037843711126854605 0.0011102097058247528
-0.01279460193985796 -0.0004004147590022016 -0.010577268679323655 -0.011504839350954069 0.05359381765261941 0.11258642289740106 0.1482489854184778 0.0990006488084232
0.07331121902282697 0.08549151834580847 0.10795138688732495 0.23536144557981528 0.2259889852525069 0.09276799787650925 -0.00013511137015376673 -9.045613333993668e-05
-9.988336356177402e-05 0.001313917413266853 -0.0009223922806795169 -0.0018974640683795852 0.0006005786654908577 -0.0005862473111963067 0.003573576203459304 0.00018633151440653655
2.7773147574174853e-06 -0.0006360030860979308 -0.0010883116404718982 0.0016630462559145073 -0.0004596369700293974 -0.0007466193133951651 -0.0011102789226331933 0.0017937002273119356
-0.050147747842800995 -0.044072093670574686 -0.0025269610341412995 0.07155403531245111 0.018594650052434762 0.006621597380029428 0.15762069826347236 0.08016874381317518
-0.28539677782725065 -0.05926734797917021 0.023545675060007727 -0.04326384583763809 -0.0014669438800526213 0.06678390840041222 -0.16197209751168892 -0.09766053204071101
0.24939537006875148 -0.1584296908146317 0.16765677469421544
